…
tor">-</span><span class="token number">1</span><span class="token punctuation">,</span> <span class="token number">1</span><span class="token punctuation">,</span> <span class="token number">1</span><span class="token punctuation">)</span>        x <span class="token operator">=</span> self<span class="token punctuation">.</span>output<span class="token punctuation">(</span>x<span class="token punctuation">)</span>        <span class="token keyword">return</span> x</code></pre><pre class="language-none"><code class="language-none">ic| net: ResNet(           (start): Sequential(             (0): Conv2d(3, 64, kernel_size&#x3D;(7, 7), stride&#x3D;(2, 2), padding&#x3D;(3, 3))             (1): BatchNorm2d(64, eps&#x3D;1e-05, momentum&#x3D;0.1, affine&#x3D;True, track_running_stats&#x3D;True)             (2): ReLU()             (3): MaxPool2d(kernel_size&#x3D;3, stride&#x3D;2, padding&#x3D;1, dilation&#x3D;1, ceil_mode&#x3D;False)           )           (residual): ModuleList(             (0): Sequential(               (0): Residual(                 (conv1): Conv2d(64, 64, kernel_size&#x3D;(3, 3), stride&#x3D;(1, 1), padding&#x3D;(1, 1))                 (conv2): Conv2d(64, 64, kernel_size&#x3D;(3, 3), stride&#x3D;(1, 1), padding&#x3D;(1, 1))                 (bn): BatchNorm2d(64, eps&#x3D;1e-05, momentum&#x3D;0.1, affine&#x3D;True, track_running_stats&#x3D;True)                 (bn2): BatchNorm2d(64, eps&#x3D;1e-05, momentum&#x3D;0.1, affine&#x3D;True, track_running_stats&#x3D;True)                 (relu): ReLU()               )               (1): Residual(                 (conv1): Conv2d(64, 64, kernel_size&#x3D;(3, 3), stride&#x3D;(1, 1), padding&#x3D;(1, 1))                 (conv2): Conv2d(64, 64, kernel_size&#x3D;(3, 3), stride&#x3D;(1, 1), padding&#x3D;(1, 1))                 (bn): BatchNorm2d(64, eps&#x3D;1e-05, momentum&#x3D;0.1, affine&#x3D;True, track_running_stats&#x3D;True)                 (bn2): BatchNorm2d(64, eps&#x3D;1e-05, momentum&#x3D;0.1, affine&#x3D;True, track_running_stats&#x3D;True)                 (relu): ReLU()               )             )             (1): Sequential(               (0): Residual(                 (conv1): Conv2d(64, 128, kernel_size&#x3D;(3, 3), stride&#x3D;(2, 2), padding&#x3D;(1, 1))                 (conv2): Conv2d(128, 128, kernel_size&#x3D;(3, 3), stride&#x3D;(1, 1), padding&#x3D;(1, 1))                 (conv3): Conv2d(64, 128, kernel_size&#x3D;(1, 1), stride&#x3D;(2, 2))                 (bn): BatchNorm2d(128, eps&#x3D;1e-05, momentum&#x3D;0.1, affine&#x3D;True, track_running_stats&#x3D;True)                 (bn2): BatchNorm2d(128, eps&#x3D;1e-05, momentum&#x3D;0.1, affine&#x3D;True, track_running_stats&#x3D;True)                 (relu): ReLU()               )               (1): Residual(                 (conv1): Conv2d(128, 128, kernel_size&#x3D;(3, 3), stride&#x3D;(1, 1), padding&#x3D;(1, 1))                 (conv2): Conv2d(128, 128, kernel_size&#x3D;(3, 3), stride&#x3D;(1, 1), padding&#x3D;(1, 1))                 (bn): BatchNorm2d(128, eps&#x3D;1e-05, momentum&#x3D;0.1, affine&#x3D;True, track_running_stats&#x3D;True)                 (bn2): BatchNorm2d(128, eps&#x3D;1e-05, momentum&#x3D;0.1, affine&#x3D;True, track_running_stats&#x3D;True)                 (relu): ReLU()               )             )             (2): Sequential(               (0): Residual(                 (conv1): Conv2d(128, 256, kernel_size&#x3D;(3, 3), stride&#x3D;(2, 2), padding&#x3D;(1, 1))                 (conv2): Conv2d(256, 256, kernel_size&#x3D;(3, 3), stride&#x3D;(1, 1), padding&#x3D;(1, 1))                 (conv3): Conv2d(128, 256, kernel_size&#x3D;(1, 1), stride&#x3D;(2, 2))                 (bn): BatchNorm2d(256, eps&#x3D;1e-05, momentum&#x3D;0.1, affine&#x3D;True, track_running_stats&#x3D;True)                 (bn2): BatchNorm2d(256, eps&#x3D;1e-05, momentum&#x3D;0.1, affine&#x3D;True, track_running_stats&#x3D;True)                 (relu): ReLU()               )               (1): Residual(                 (conv1): Conv2d(256, 256, kernel_size&#x3D;(3, 3), stride&#x3D;(1, 1), padding&#x3D;(1, 1))                 (conv2): Conv2d(256, 256, kernel_size&#x3D;(3, 3), stride&#x3D;(1, 1), padding&#x3D;(1, 1))                 (bn): BatchNorm2d(256, eps&#x3D;1e-05, momentum&#x3D;0.1, affine&#x3D;True, track_running_stats&#x3D;True)                 (bn2): BatchNorm2d(256, eps&#x3D;1e-05, momentum&#x3D;0.1, affine&#x3D;True, track_running_stats&#x3D;True)                 (relu): ReLU()               )             )             (3): Sequential(               (0): Residual(                 (conv1): Conv2d(256, 512, kernel_size&#x3D;(3, 3), stride&#x3D;(2, 2), padding&#x3D;(1, 1))                 (conv2): Conv2d(512, 512, kernel_size&#x3D;(3, 3), stride&#x3D;(1, 1), padding&#x3D;(1, 1))                 (conv3): Conv2d(256, 512, kernel_size&#x3D;(1, 1), stride&#x3D;(2, 2))                 (bn): BatchNorm2d(512, eps&#x3D;1e-05, momentum&#x3D;0.1, affine&#x3D;True, track_running_stats&#x3D;True)                 (bn2): BatchNorm2d(512, eps&#x3D;1e-05, momentum&#x3D;0.1, affine&#x3D;True, track_running_stats&#x3D;True)                 (relu): ReLU()               )               (1): Residual(                 (conv1): Conv2d(512, 512, kernel_size&#x3D;(3, 3), stride&#x3D;(1, 1), padding&#x3D;(1, 1))                 (conv2): Conv2d(512, 512, kernel_size&#x3D;(3, 3), stride&#x3D;(1, 1), padding&#x3D;(1, 1))                 (bn): BatchNorm2d(512, eps&#x3D;1e-05, momentum&#x3D;0.1, affine&#x3D;True, track_running_stats&#x3D;True)                 (bn2): BatchNorm2d(512, eps&#x3D;1e-05, momentum&#x3D;0.1, affine&#x3D;True, track_running_stats&#x3D;True)                 (relu): ReLU()               )             )           )           (output): Sequential(             (0): Flatten(start_dim&#x3D;1, end_dim&#x3D;-1)             (1): Linear(in_features&#x3D;512, out_features&#x3D;10, bias&#x3D;True)           )         )ic| net(data).shape: torch.Size([4, 10])</code></pre><ul><li><code>DenseNet.py</code></li></ul><p>本文件实现了 DenseNet.</p><pre class="language-python" data-language="python"><code class="language-python"><span class="token keyword">import</span> enum<span class="token keyword">import</span> torch<span class="token keyword
…
r">=</span><span class="token punctuation">(</span><span class="token number">2</span><span class="token punctuation">,</span> <span class="token number">3</span><span class="token punctuation">)</span><span class="token punctuation">)</span>        x <span class="token operator">=</span> self<span class="token punctuation">.</span>fc<span class="token punctuation">(</span>x<span class="token punctuation">)</span>        <span class="token keyword">return</span> x</code></pre><pre class="language-none"><code class="language-none">ic| net: DenseNet(           (start): Sequential(             (0): Conv2d(3, 64, kernel_size&#x3D;(7, 7), stride&#x3D;(2, 2), padding&#x3D;(3, 3))             (1): BatchNorm2d(64, eps&#x3D;1e-05, momentum&#x3D;0.1, affine&#x3D;True, track_running_stats&#x3D;True)             (2): ReLU()             (3): MaxPool2d(kernel_size&#x3D;3, stride&#x3D;2, padding&#x3D;1, dilation&#x3D;1, ceil_mode&#x3D;False)           )           (dense): ModuleList(             (0): DenseBlock(               (net): ModuleList(                 (0): Sequential(                   (0): BatchNorm2d(64, eps&#x3D;1e-05, momentum&#x3D;0.1, affine&#x3D;True, track_running_stats&#x3D;True)                   (1): ReLU()                   (2): Conv2d(64, 32, kernel_size&#x3D;(3, 3), stride&#x3D;(1, 1), padding&#x3D;(1, 1))                 )                 (1): Sequential(                   (0): BatchNorm2d(96, eps&#x3D;1e-05, momentum&#x3D;0.1, affine&#x3D;True, track_running_stats&#x3D;True)                   (1): ReLU()                   (2): Conv2d(96, 32, kernel_size&#x3D;(3, 3), stride&#x3D;(1, 1), padding&#x3D;(1, 1))                 )                 (2): Sequential(                   (0): BatchNorm2d(128, eps&#x3D;1e-05, momentum&#x3D;0.1, affine&#x3D;True, track_running_stats&#x3D;True)                   (1): ReLU()                   (2): Conv2d(128, 32, kernel_size&#x3D;(3, 3), stride&#x3D;(1, 1), padding&#x3D;(1, 1))                 )                 (3): Sequential(                   (0): BatchNorm2d(160, eps&#x3D;1e-05, momentum&#x3D;0.1, affine&#x3D;True, track_running_stats&#x3D;True)                   (1): ReLU()                   (2): Conv2d(160, 32, kernel_size&#x3D;(3, 3), stride&#x3D;(1, 1), padding&#x3D;(1, 1))                 )               )             )             (1): Sequential(               (0): BatchNorm2d(192, eps&#x3D;1e-05, momentum&#x3D;0.1, affine&#x3D;True, track_running_stats&#x3D;True)               (1): ReLU()               (2): Conv2d(192, 96, kernel_size&#x3D;(1, 1), stride&#x3D;(1, 1))               (3): AvgPool2d(kernel_size&#x3D;2, stride&#x3D;2, padding&#x3D;0)             )             (2): DenseBlock(               (net): ModuleList(                 (0): Sequential(                   (0): BatchNorm2d(96, eps&#x3D;1e-05, momentum&#x3D;0.1, affine&#x3D;True, track_running_stats&#x3D;True)                   (1): ReLU()                   (2): Conv2d(96, 32, kernel_size&#x3D;(3, 3), stride&#x3D;(1, 1), padding&#x3D;(1, 1))                 )                 (1): Sequential(                   (0): BatchNorm2d(128, eps&#x3D;1e-05, momentum&#x3D;0.1, affine&#x3D;True, track_running_stats&#x3D;True)                   (1): ReLU()                   (2): Conv2d(128, 32, kernel_size&#x3D;(3, 3), stride&#x3D;(1, 1), padding&#x3D;(1, 1))                 )                 (2): Sequential(                   (0): BatchNorm2d(160, eps&#x3D;1e-05, momentum&#x3D;0.1, affine&#x3D;True, track_running_stats&#x3D;True)                   (1): ReLU()                   (2): Conv2d(160, 32, kernel_size&#x3D;(3, 3), stride&#x3D;(1, 1), padding&#x3D;(1, 1))                 )                 (3): Sequential(                   (0): BatchNorm2d(192, eps&#x3D;1e-05, momentum&#x3D;0.1, affine&#x3D;True, track_running_stats&#x3D;True)                   (1): ReLU()                   (2): Conv2d(192, 32, kernel_size&#x3D;(3, 3), stride&#x3D;(1, 1), padding&#x3D;(1, 1))                 )               )             )             (3): Sequential(               (0): BatchNorm2d(224, eps&#x3D;1e-05, momentum&#x3D;0.1, affine&#x3D;True, track_running_stats&#x3D;True)               (1): ReLU()               (2): Conv2d(224, 112, kernel_size&#x3D;(1, 1), stride&#x3D;(1, 1))               (3): AvgPool2d(kernel_size&#x3D;2, stride&#x3D;2, padding&#x3D;0)             )             (4): DenseBlock(               (net): ModuleList(                 (0): Sequential(                   (0): BatchNorm2d(112, eps&#x3D;1e-05, momentum&#x3D;0.1, affine&#x3D;True, track_running_stats&#x3D;True)                   (1): ReLU()                   (2): Conv2d(112, 32, kernel_size&#x3D;(3, 3), stride&#x3D;(1, 1), padding&#x3D;(1, 1))                 )                 (1): Sequential(                   (0): BatchNorm2d(144, eps&#x3D;1e-05, momentum&#x3D;0.1, affine&#x3D;True, track_running_stats&#x3D;True)                   (1): ReLU()                   (2): Conv2d(144, 32, kernel_size&#x3D;(3, 3), stride&#x3D;(1, 1), padding&#x3D;(1, 1))                 )                 (2): Sequential(                   (0): BatchNorm2d(176, eps&#x3D;1e-05, momentum&#x3D;0.1, affine&#x3D;True, track_running_stats&#x3D;True)                   (1): ReLU()                   (2): Conv2d(176, 32, kernel_size&#x3D;(3, 3), stride&#x3D;(1, 1), padding&#x3D;(1, 1))                 )                 (3): Sequential(                   (0): BatchNorm2d(208, eps&#x3D;1e-05, momentum&#x3D;0.1, affine&#x3D;True, track_running_stats&#x3D;True)                   (1): ReLU()                   (2): Conv2d(208, 32, kernel_size&#x3D;(3, 3), stride&#x3D;(1, 1), padding&#x3D;(1, 1))                 )               )             )             (5): Sequential(               (0): BatchNorm2d(240, eps&#x3D;1e-05, momentum&#x3D;0.1, affine&#x3D;True, track_running_stats&#x3D;True)               (1): ReLU()               (2): Conv2d(240, 120, kernel_size&#x3D;(1, 1), stride&#x3D;(1, 1))               (3): AvgPool2d(kernel_size&#x3D;2, stride&#x3D;2, padding&#x3D;0)             )             (6): DenseBlock(               (net): ModuleList(                 (0): Sequential(                   (0): BatchNorm2d(120, eps&#x3D;1e-05, momentum&#x3D;0.1, affine&#x3D;True, track_running_stats&#x3D;True)                   (1): ReLU()                   (2): Conv2d(120, 32, kernel_size&#x3D;(3, 3), stride&#x3D;(1, 1), padding&#x3D;(1, 1))                 )                 (1): Sequential(                   (0): BatchNorm2d(152, eps&#x3D;1e-05, momentum&#x3D;0.1, affine&#x3D;True, track_running_stats&#x3D;True)                   (1): ReLU()                   (2): Conv2d(152, 32, kernel_size&#x3D;(3, 3), stride&#x3D;(1, 1), padding&#x3D;(1, 1))                 )                 (2): Sequential(                   (0): BatchNorm2d(184, eps&#x3D;1e-05, momentum&#x3D;0.1, affine&#x3D;True, track_running_stats&#x3D;True)                   (1): ReLU()                   (2): Conv2d(184, 32, kernel_size&#x3D;(3, 3), stride&#x3D;(1, 1), padding&#x3D;(1, 1))                 )                 (3): Sequential(                   (0): BatchNorm2d(216, eps&#x3D;1e-05, momentum&#x3D;0.1, affine&#x3D;True, track_running_stats&#x3D;True)                   (1): ReLU()                   (2): Conv2d(216, 32, kernel_size&#x3D;(3, 3), stride&#x3D;(1, 1), padding&#x3D;(1, 1))                 )               )             )           )           (output): Sequential(             (0): BatchNorm2d(248, eps&#x3D;1e-05, momentum&#x3D;0.1, affine&#x3D;True, track_running_stats&#x3D;True)             (1): ReLU()           )           (fc): Sequential(             (0): Flatten(start_dim&#x3D;1, end_dim&#x3D;-1)             (1): Linear(in_features&#x3D;248, out_features&#x3D;10, bias&#x3D;True)           )         )ic| net(data).shape: torch.Size([4, 10])</code></pre>]]></content>
    
    
    <summary type="html">&lt;p&gt;&lt;img src=&quot;https://tangshusen.me/Dive-into-DL-PyTorch/img/cover.png&quot; alt=&quot;&quot;&gt;&lt;/p&gt;
&lt;ul&gt;
&lt;li&gt;《动手学深度学习》原书地址：&lt;a href=&quot;https://github.com/d2l-ai/d2l-zh&quot;&gt;https://github.com/d2l-ai/d2l-zh&lt;/a&gt;&lt;/li&gt;
…
